smoothing/denoisers/depth_5_nc_16/imagenet_mse/noise_1.00/checkpoint.pth.tar (torch_old, 102544 bytes, 42 tensors)

module.dncnn.0.weight f4 [16, 3, 3, 3]
0	0xbb6c524d	-0.0036059797
1	0xbb5f8fa7	-0.0034112723
2	0xbba52133	-0.005039358
3	0xbb2bb876	-0.0026202477
4	0xbb91d3b8	-0.0044502877
5	0xbacf8853	-0.0015833474
6	0xbb19df18	-0.0023478922
7	0xbb563bb8	-0.0032689404
8	0xbb09fb96	-0.0021054498
9	0xbc10e59a	-0.008843804
10	0xbbd0ca62	-0.006371782
11	0xbc1eac76	-0.009684673
12	0xbbdbd79b	-0.006709052
13	0xbbaa7eab	-0.0052030883
14	0xbba68f3d	-0.0050829933
15	0xbbfbe149	-0.007686768
16	0xbb66edde	-0.0035236995
17	0xbbee5c8f	-0.0072742174
18	0xbb9b1e66	-0.0047338484
19	0xbb023a94	-0.001987134
20	0xbba04dd6	-0.0048920913
21	0xbba88f22	-0.005144016
22	0xbb9a593e	-0.0047103455
23	0xbb5d1ab6	-0.0033737845
24	0xbb65d89d	-0.0035071739
25	0xbb26593e	-0.0025382782
26	0xbb32c450	-0.0027277656
27	0x3c5db79f	0.013532548
28	0x3c910c9a	0.017706204
29	0x39e105a1	0.00042919538
30	0x3b63525f	0.0034686548
31	0x3c7fd0f2	0.015613781
32	0x3c9b100f	0.018928556
33	0x3c42c769	0.011888363
34	0xbb1677ff	-0.0022959707
35	0x3c439df8	0.011939518
36	0x3ba90f96	0.0051593287
37	0x3d033972	0.032037206
38	0x3c5c7e79	0.013457888
39	0xba1b9286	-0.00059346145
40	0xbd1020c7	-0.03518751
41	0xbb7bc096	-0.003841435
42	0x3b8535cf	0.0040652524
43	0xbc1cd62a	-0.009572545
44	0xbbe6ffa7	-0.007049519
45	0x3c2d26c9	0.010568329
46	0x39fa34dd	0.00047723102
47	0x3aa93a7a	0.0012911104
48	0x3c7b72fd	0.01534724
49	0x3cb06b40	0.021535516
50	0xbc569855	-0.013097842
51	0x3a1d83b3	0.00060086994
52	0x3b89f535	0.004210139
53	0xbc410742	-0.011781516
54	0x3c850316	0.016236823
55	0x3d1840a7	0.037171032
56	0x3c58dc11	0.013236062
57	0xbdbcef54	-0.09225336
58	0x3d05499a	0.032540895
59	0x3cc8c158	0.024506256
60	0x3d080e8c	0.033216998
61	0x3d203f94	0.039123133
62	0x3ccc6742	0.02495158
63	0x3d0231cf	0.031785782
64	0x3ce7691b	0.02824836
65	0x3cbcc0bb	0.02304112
66	0x3c58b838	0.013227515
67	0x3cf5be17	0.029997868
68	0x3cb65a8a	0.02225997
69	0x3d0f5066	0.034988783
70	0x3cfaa302	0.030595306
71	0x3cbf41ef	0.02334687
72	0xbcedde41	-0.029036643
73	0xbc7b036d	-0.015320641
74	0x3af32cdd	0.0018552799
75	0xbdb9909e	-0.09060787
76	0x3b441efc	0.0029925695
77	0x3c4eeef9	0.012630218
78	0xbc48d2d2	-0.012257295
79	0x3c02b25f	0.007977097
80	0x3c3eab9b	0.011637594
81	0x3b5e0047	0.0033874677
82	0x3bf78834	0.0075540785
83	0xbc424671	-0.011857615
84	0xbca8de4b	-0.02061381
85	0xbc2b4f63	-0.010455939
86	0x3c4c212c	0.012459081
87	0x3bde6c02	0.006787778
88	0xba3f24ff	-0.00072915846
89	0x3be05d36	0.006847049
90	0x3c632653	0.013864118
91	0x3d20fe45	0.03930499
92	0x3ccc22cd	0.024918938
93	0xbc625c0c	-0.013815891
94	0x3cef6c61	0.029226484
95	0x3c9c9c32	0.019117448
96	0x3c865113	0.016396081
97	0xbb94136c	-0.004518917
98	0x3c088706	0.008332973
99	0x3cd84af3	0.026402926
100	0x3d0e33b7	0.034717288
101	0x3cae9c13	0.021314656
102	0xbb455427	-0.0030109973
103	0x3d253851	0.04033691
104	0x3c6260a8	0.01381699
105	0x3c6f71b6	0.014614513
106	0xbaa41994	-0.001251983
107	0x3b855a35	0.0040695914
108	0x3c669154	0.014072735
109	0x3c504f32	0.012714194
110	0x3c3b0a9c	0.011416104
111	0x3caa1f5a	0.020766903
112	0x3ce65b85	0.028119812
113	0x3b818392	0.003952452
114	0x3b919bf4	0.00444364
115	0x3bb99bf5	0.0056643435
116	0x3c41cdfc	0.011828896
117	0x3c119b01	0.0088870535
118	0xbbb2bb34	-0.0054544453
119	0x3c3ce89c	0.011530068
120	0x3cc31d55	0.023817698
121	0xbc57a805	-0.013162618
122	0x3badf938	0.00530925
123	0x3c23e2c1	0.010002793
124	0x3cbac103	0.022797113
125	0x3c3be0bb	0.011467154
126	0x3c473bfb	0.012160297
127	0x3c442fe1	0.011974306
128	0xbc53316b	-0.0128902
129	0x3c052e2e	0.008128686
130	0xbbe5d467	-0.0070138457
131	0xbc224b74	-0.009905685
132	0x3c08beae	0.008346243
133	0x3c923395	0.017846862
134	0x389ed887	7.5743585e-05
135	0x3c9a57ed	0.018840754
136	0xbbbff22e	-0.0058577275
137	0x3b9c3f7f	0.0047683115
138	0x3b1bf90d	0.002379957
139	0xbcc5fb1f	-0.024167595
140	0x3c7389a8	0.014864363
141	0x3c22dafc	0.009939905
142	0x3a9a1c25	0.0011757655
143	0xbbd4ea6d	-0.0064976723
144	0xba1ae1a3	-0.0005908256
145	0x3cf303dc	0.029664926
146	0x3be2642d	0.0069089145
147	0x3bff3de6	0.0077893613
148	0xbca1b549	-0.019739764
149	0xbb60fdf5	-0.0034331058
150	0x3a566cbf	0.00081796566
151	0x3a4b58a9	0.0007757047
152	0x3c23137f	0.009953379
153	0xbb47657e	-0.0030425484
154	0xbb19aca6	-0.0023448854
155	0xbbdad0d1	-0.006677725
156	0x3c905dfa	0.017622937
157	0x3c1c683f	0.009546339
158	0x3cbbf92a	0.02294596
159	0xbb547f44	-0.003242449
160	0x3be8aefe	0.007100939
161	0x3cb3b6ce	0.021937754
162	0xba9cfddc	-0.0011977511
163	0x3cbcd757	0.0230519
164	0x3ccb8f95	0.024848739
165	0xbc37e6c2	-0.011224451
166	0xbd5e5c9d	-0.05428754
167	0x3cf41527	0.029795242
168	0xba33b1de	-0.00068548124
169	0x3c8f799e	0.017514046
170	0x3c684513	0.014176625
171	0x3c529f48	0.012855358
172	0xbcc6b298	-0.024255082
173	0x3c6d59c2	0.014486732
174	0x3a0b4fe9	0.0005314337
175	0x3c3ac8fa	0.011400456
176	0xbb34836d	-0.0027544156
177	0xbc8682fd	-0.016419882
178	0xba9a7e58	-0.0011786921
179	0x3bdd214c	0.006748354
180	0x3bdfa9d4	0.006825665
181	0x3c806cea	0.015676934
182	0x3c84e49f	0.016222296
183	0x3be267c4	0.0069093425
184	0x3ccd8956	0.025089901
185	0x3bc6cc2e	0.0060668206
186	0xbc07cfb0	-0.008289263
187	0x3b70d87a	0.0036750124
188	0x3c7d589d	0.015463022
189	0x3c06fba2	0.008238705
190	0xbbdbaceb	-0.006703963
191	0xbc5c11f9	-0.013432019
192	0x3b52bf47	0.0032157467
193	0xbb8899e2	-0.004168735
194	0xbbee635d	-0.0072750286
195	0x3b3a315d	0.002841077
196	0xba86f06a	-0.0010295038
197	0xbaeccfa0	-0.0018067248
198	0xbc28f82a	-0.010313073
199	0x3cca95cf	0.024729637
200	0x3bcac98f	0.0061885784
201	0x3c451c45	0.012030666
202	0x3b10d94c	0.0022102175
203	0x3c43e34c	0.011956047
204	0xbb99037e	-0.0046696058
205	0x3c8f24c0	0.017473578
206	0x3bf20d94	0.0073868725
207	0xba4885bf	-0.0007649324
208	0x3b986192	0.004650303
209	0x3bfd29bd	0.007725923
210	0xbb4191c7	-0.0029536353
211	0x3d37cf26	0.044875287
212	0x3c0e2757	0.008676372
213	0xbc1e680e	-0.009668363
214	0x3c70b727	0.014692104
215	0x3bb76a66	0.0055974005
216	0xbc0571ae	-0.008144779
217	0xbc427c49	-0.011870452
218	0xbbee53f5	-0.007273192
219	0xbc8a2b89	-0.016866462
220	0x3cd6d5c4	0.026224978
221	0xbc9be1fc	-0.019028656
222	0xbcc078ec	-0.02349516
223	0xbc5d44b4	-0.01350515
224	0xb903a924	-0.00012556143
225	0xbc664ccc	-0.014056396
226	0xbcab1cd0	-0.020887762
227	0xbca01b65	-0.019544313
228	0xbc89c8b7	-0.016819341
229	0x3d2014df	0.039082404
230	0x3bf4dbf6	0.0074725104
231	0x3b0281b6	0.001991374
232	0xbbbcae5c	-0.00575809
233	0x3bdad5d2	0.0066783214
234	0x3c036363	0.008019301
235	0x3951b6bb	0.00019999866
236	0xbc390488	-0.011292584
237	0x3cc7646d	0.024339879
238	0x396fd5a4	0.00022872403
239	0xbb86bcec	-0.0041118767
240	0x3ca30896	0.019901555
241	0x3b7e6ef2	0.0038823453
242	0x3bba2222	0.0056803385
243	0x3af0c129	0.0018368113
244	0x3c57fa41	0.013182224
245	0x3a4f4161	0.00079061656
246	0x3d199070	0.037491262
247	0x3d6c674d	0.057715703
248	0x3bfe5f0f	0.0077627967
249	0x3cb54cb1	0.022131296
250	0x3be8082a	0.0070810514
251	0x3c10c7a7	0.008836663
252	0xbcc62fb5	-0.02419267
253	0x3cc9272d	0.024554813
254	0x3c569d2a	0.013098994
255	0xbc9434dc	-0.018091612

module.dncnn.0.bias f4 [16]
0	0x3dcf50d5	0.10122839
1	0x3e792211	0.24329402
2	0x3e889791	0.26678136
3	0x3e84138d	0.25796166
4	0x3e6a57ba	0.22885028
5	0x3e4e916e	0.20172665
6	0x3e994977	0.29938862
7	0x3e6bdc53	0.23033266
8	0x3eb228ad	0.34796658
9	0x3e89a4a4	0.26883423
10	0x3eaf00b8	0.34180236
11	0x3e4b87a6	0.19875965
12	0x3e4abf95	0.19799645
13	0x3eaafb3b	0.333948
14	0x3e8802be	0.26564592
15	0x3e95fd88	0.29294991

module.dncnn.2.weight f4 [16, 16, 3, 3]
0	0xbca272f9	-0.019830214
1	0xbbf23bb9	-0.0073923734
2	0xbbb2c207	-0.005455259
3	0xbc589de5	-0.013221239
4	0xbc544b4e	-0.012957407
5	0xb95e47fd	-0.00021198388
6	0xbc220ad2	-0.009890275
7	0xbaf42841	-0.0018627719
8	0xbb3ed710	-0.0029119886
9	0x3bfc940d	0.0077080787
10	0x3dd21b43	0.10259106
11	0x3ccb873c	0.024844758
12	0x3d6dfcd7	0.058102455
13	0x3c1bbaff	0.009505033
14	0xbbb1ba3b	-0.0054238117
15	0xbd53409c	-0.05157529
16	0xbc72933c	-0.014805611
17	0xbd53d4cf	-0.051716622
18	0x3bb5a935	0.0055438527
19	0x3c27ceaa	0.010242144
20	0x3c86356c	0.016382895
21	0xbbf80909	-0.0075694364
22	0xbbe1bf4b	-0.006889259
23	0xbc0b00e7	-0.008484102
24	0x3b9c8053	0.0047760396
25	0x3b986a5b	0.0046513504
26	0x3a8ea51d	0.0010882948
27	0x3c536511	0.012902514
28	0x3c7497d1	0.014928774
29	0xba6bc031	-0.00089931773
30	0x3bd59266	0.006517696
31	0x3b89c034	0.0042038206
32	0x3bed1c41	0.007236034
33	0x3900f7b1	0.00012299303
34	0x3ce59708	0.028026119
35	0xbb83da96	-0.00402386
36	0x3ca7e1b6	0.02049337
37	0xbd439faf	-0.047759708
38	0xbc967470	-0.018366069
39	0x3c6607d0	0.014039949
40	0x3e5b0a87	0.21390735
41	0xbc8c4a36	-0.01712523
42	0xbc30a06a	-0.010780433
43	0x3b70530d	0.0036670596
44	0xbd1c51d9	-0.038163994
45	0xbad14a74	-0.0015967623
46	0xbc7b6bd5	-0.015345533
47	0x3d0ec76e	0.03485816
48	0xbc4d4108	-0.012527712
49	0xbd586f87	-0.052840736
50	0xbcc40301	-0.023927214
51	0xbc72865c	-0.014802542
52	0xba9ca6c5	-0.0011951557
53	0xbd1df405	-0.038562793
54	0xbae23ad5	-0.0017259965
55	0x3c25d8e6	0.010122513
56	0x3ce610a1	0.028084101
57	0xba3f0b97	-0.0007287799
58	0xbd10c415	-0.03534325
59	0xbc105414	-0.008809108
60	0xbd00e961	-0.031472567
61	0x3d00ec7d	0.031475533
62	0xbd3859aa	-0.045007385
63	0xbc5eaed3	-0.013591486
64	0x3ce75a83	0.028241402
65	0xbb47cfe3	-0.00304889
66	0xbcb71146	-0.022347104
67	0xbd8ff759	-0.070296
68	0xbc948cee	-0.018133607
69	0xbc84f5d3	-0.0162305
70	0x3ce1c75a	0.027560879
71	0x3c331127	0.010929382
72	0xbd3168c0	-0.043312788
73	0xbd09572d	-0.033530403
74	0xbd434737	-0.047675338
75	0xbc71a94f	-0.014749839
76	0xbcb51245	-0.022103438
77	0xbd407e83	-0.04699565
78	0xbcfa13bb	-0.030526986
79	0x3c9c315f	0.01906651
80	0xbd1bcc03	-0.038036358
81	0xbd102137	-0.035187926
82	0xbc61f265	-0.0137907015
83	0x3d119001	0.035537723
84	0xbcadb267	-0.021203233
85	0xba3287f3	-0.0006810419
86	0x3e60f6da	0.21969166
87	0xbc0d6469	-0.008629897
88	0x3b34c7f1	0.0027584995
89	0xbc904d77	-0.017615063
90	0xbaa09648	-0.0012251819
91	0x3af2b565	0.0018517195
92	0xbc220397	-0.009888551
93	0x3bc7aa6c	0.006093314
94	0xbb4bb56f	-0.0031083485
95	0x3aee14bd	0.001816414
96	0x39edc043	0.0004534741
97	0x3b72c278	0.0037042182
98	0xbb4f3d88	-0.003162237
99	0xbd0a43e0	-0.033756137
100	0x3d80aa2f	0.0628246
101	0xbd398556	-0.045293175
102	0xbcd19d8c	-0.02558782
103	0xbd0b30a1	-0.033981923
104	0xbcf0e061	-0.029403867
105	0x3c4b791d	0.012419012
106	0xbccc579a	-0.024944115
107	0xb94546fb	-0.00018813826
108	0xbb6c9d9e	-0.003610469
109	0xbbc62888	-0.006047312
110	0xbd92d909	-0.071703024
111	0x3d2bd224	0.041948453
112	0xbd84a873	-0.06477442
113	0xbc8a0030	-0.016845793
114	0xbb1a095f	-0.002350412
115	0x3ca84538	0.020540819
116	0x3cddeebb	0.027091375
117	0x3949b048	0.00019234524
118	0xbd720b04	-0.059092537
119	0xbd52ac0e	-0.051433615
120	0xba9991f3	-0.001171647
121	0xbcd7fcf7	-0.02636574
122	0xbd9139ff	-0.0709114
123	0xbbee3fb4	-0.0072707776
124	0x3cca67a4	0.024707623
125	0xbdb4d4bc	-0.08829638
126	0xbcfaeed6	-0.030631464
127	0xb9aa442f	-0.00032475727
128	0x3c7c9578	0.0154164955
129	0xbd4ab05b	-0.049484592
130	0x3e3d4666	0.18483886
131	0xbd02f5bd	-0.031972636
132	0xbc1d550a	-0.009602794
133	0x3c508b4e	0.012728525
134	0x3bcb1976	0.0061981035
135	0x3c3af36f	0.011410578
136	0x3d0c2d13	0.034222674
137	0xbcbf07de	-0.023319181
138	0xbbd90e30	-0.0066240057
139	0xbd4dc2e3	-0.050234687
140	0x3dafbf5b	0.0858142
141	0xbc04d17a	-0.008106584
142	0x3d09e009	0.033660922
143	0xbcd0adbf	-0.025473474
144	0xbbf1734b	-0.0073684803
145	0x3ad9db6d	0.001662118
146	0x3a794c4d	0.0009509966
147	0xbbe7de18	-0.007076036
148	0xbb94eaed	-0.004544607
149	0x3be1f090	0.0068951324
150	0x3b428de7	0.0029686631
151	0xba8e5885	-0.0010860121
152	0x3a7f15bd	0.0009730717
153	0x3b7d85e8	0.003868455
154	0xbcd1e2af	-0.025620786
155	0x3ca86310	0.02055505
156	0xbd3944a0	-0.04523146
157	0xbd4610ba	-0.048355795
158	0xbca61dff	-0.020277975
159	0xbc82571b	-0.015910676
160	0x3d085acd	0.03328972
161	0xbcc7f8c6	-0.024410617
162	0x3c1ede7d	0.0096966
163	0x3b22aceb	0.0024822305
164	0xbb2cf330	-0.0026390068
165	0x3bcc4981	0.0062343483
166	0x3c0226f0	0.007943854
167	0x3c6a807c	0.01431286
168	0xbb73bd1a	-0.003719157
169	0xbbd80d16	-0.006593357
170	0x3b8c03fb	0.0042729354
171	0xbca0fdf0	-0.019652337
172	0x3c1708f0	0.009218439
173	0x3c8bd12f	0.01706752
174	0xbc29272c	-0.010324281
175	0x3d0c4216	0.034242712
176	0xbd51855c	-0.051152572
177	0xbc226c5c	-0.00991353
178	0x3ceb876b	0.028751096
179	0xbc97bb3a	-0.018521894
180	0xbce0d7c1	-0.02744663
181	0xbd2a42f7	-0.04156777
182	0xbd39acf5	-0.04533096
183	0x3cb013be	0.021493789
184	0xbd1b547e	-0.037922375
185	0x3a8720f1	0.00103095
186	0x3cdd516d	0.027016366
187	0xbd961cd3	-0.073297165
188	0xbd580cbc	-0.05274652
189	0xbc9a74b9	-0.018854486
190	0xbbab58f0	-0.005229108
191	0xbc578236	-0.013153603
192	0x3c4f526d	0.012653929
193	0x3a35c84f	0.00069344504
194	0xbcf01a97	-0.029309554
195	0x3c3c0dde	0.011477916
196	0x3dc2b469	0.09507067
197	0xbd5a8e78	-0.053358525
198	0xbccd8a6c	-0.025090419
199	0xbc4f6260	-0.012657732
200	0xbd1cbe7f	-0.03826761
201	0x38b013a4	8.395992e-05
202	0x3d248a7f	0.040171143
203	0xbc35adcb	-0.011088799
204	0xbc8663f7	-0.016405089
205	0xbd97e482	-0.07416631
206	0x3b622476	0.0034506596
207	0xbc030332	-0.007996367
208	0xba3276b7	-0.0006807851
209	0xbd12baf6	-0.03582283
210	0x3d268d3b	0.04066203
211	0xbdc6b102	-0.0970173
212	0x3e1cc526	0.15309581
213	0xbce4fa94	-0.027951516
214	0x3da429c9	0.080157824
215	0xbe03d37c	-0.12873644
216	0xbcd3c552	-0.025850926
217	0x3d096c6e	0.033550672
218	0xbd2f4b77	-0.04279658
219	0x3c61540b	0.013752948
220	0x3dd7c2a3	0.10535171
221	0xbdb92115	-0.09039513
222	0xbdb1933d	-0.086706616
223	0xbc760f56	-0.015018305
224	0xbdac124c	-0.08401927
225	0x3bcf7ee2	0.0063322643
226	0x3c90618a	0.017624635
227	0x3b91058f	0.0044257115
228	0xbb23eac8	-0.0025011767
229	0x3c7b15ef	0.015325054
230	0x3b95a4d7	0.0045667696
231	0x3c67a222	0.014137777
232	0x3d287bba	0.04113362
233	0x3c4b6f7c	0.012416717
234	0xbb8ac8a5	-0.0042353445
235	0xbb505c2d	-0.0031793222
236	0x3b85e952	0.004086652
237	0xba486d44	-0.00076456764
238	0xbc01b7c6	-0.00791735
239	0x3ae02a0f	0.0017102378
240	0x3b6d62bb	0.0036222178
241	0xbbf5ad68	-0.0074974783
242	0x3b053c1b	0.0020330015
243	0x3d1ff0e1	0.03904808
244	0x3d650fd6	0.055923305
245	0x3c17a98f	0.0092567345
246	0xbc4330cb	-0.011913489
247	0x3ddb9e5c	0.10723564
248	0x3dc00fb4	0.09377995
249	0xbc60abfe	-0.013712881
250	0xbc0c1cb3	-0.008551764
251	0x3c2e7d7c	0.010650035
252	0xbca6f8ee	-0.02038237
253	0xbc096168	-0.00838504
254	0xbcf5ab19	-0.029988812
255	0x3bf0bf21	0.007347003

module.dncnn.3.weight f4 [16]
0	0x3ee6d990	0.45087862
1	0x3ee4b2b4	0.4466759
2	0x3eb4e84f	0.35333487
3	0x3eef3f24	0.4672786
4	0x3e97905b	0.29602322
5	0x3ea4d0f2	0.32190663
6	0x3ea9dfb9	0.331785
7	0x3ee672c7	0.45009443
8	0x3ece73ce	0.40322727
9	0x3e841067	0.25793764
10	0x3ee0dd04	0.43918622
11	0x3e9ae163	0.3025008
12	0x3eab5a67	0.3346741
13	0x3eacc22b	0.33741888
14	0x3e99dd84	0.30051816
15	0x3ed47417	0.4149482

module.dncnn.3.bias f4 [16]
0	0x3c8f3a6a	0.017483909
1	0x3c3551c3	0.011066857
2	0x3ac4b27e	0.0015006808
3	0xbb41bc45	-0.002956168
4	0x3de39a83	0.11113455
5	0xbc3c562d	-0.011495155
6	0x3943c3cb	0.00018669588
7	0xbc5990b6	-0.013279131
8	0xbe050334	-0.12989503
9	0xbdd928ee	-0.1060351
10	0x3ce2af59	0.027671503
11	0x3cf01728	0.029307917
12	0xbdec6c00	-0.11544037
13	0x3df0eba8	0.11763698
14	0x3df8341f	0.12119316
15	0x3be20abe	0.006898253

module.dncnn.3.running_mean f4 [16]
0	0xbdf9f722	-0.1220534
1	0xbdc2e614	-0.0951654
2	0xbd8370d3	-0.06418004
3	0x3a99adc7	0.0011724763
4	0xbce8bfd5	-0.028411785
5	0x3cc9c8fd	0.024631971
6	0x3e1499ef	0.14511846
7	0xbd639561	-0.05556238
8	0xbe1f3ce8	-0.15550578
9	0xbd1aa77e	-0.03775739
10	0xbcfcfe06	-0.030882847
11	0xbd3e3207	-0.04643443
12	0xbd35bb44	-0.044368044
13	0x3df76f84	0.12081817
14	0xbae5bd0e	-0.0017527656
15	0x3d476cb2	0.048687644

module.dncnn.3.running_var f4 [16]
0	0x3b6ab984	0.0035816142
1	0x3b34c059	0.0027580468
2	0x3ab959b8	0.0014141118
3	0x3b68e261	0.0035535323
4	0x3b16a2a8	0.0022985134
5	0x3ab1c168	0.0013561668
6	0x3ac064a1	0.0014678427
7	0x3b4c9b42	0.003122047
8	0x39822975	0.0002482642
9	0x39220358	0.0001545077
10	0x3ba24f82	0.0049533257
11	0x3abca33b	0.0014391908
12	0x3ae0c14a	0.0017147448
13	0x3927e2e6	0.00016010887
14	0x39a720cc	0.00031877158
15	0x3b414cd7	0.0029495263

module.dncnn.5.weight f4 [16, 16, 3, 3]
0	0x3cad6372	0.021165583
1	0x3c2bc42c	0.010483783
2	0x3b7d118e	0.00386152
3	0x3bafd1d1	0.0053655882
4	0xba8983f2	-0.0010491593
5	0xb9fc96ce	-0.00048177544
6	0x3c242aff	0.010020017
7	0x3c8ac0da	0.016937662
8	0xbc5f2e0f	-0.013621821
9	0x3c019c57	0.0079108095
10	0x3c54ccb1	0.012988255
11	0x3bd931dd	0.0066282586
12	0xbad709e2	-0.0016406144
13	0xbc0c4fe6	-0.008563971
14	0xbc40661b	-0.011743094
15	0x3c8d86a8	0.017276123
16	0xbaad4b8b	-0.0013221366
17	0xbc925401	-0.017862322
18	0x3d04e242	0.03244234
19	0xbb0738fa	-0.0020633326
20	0x3c5c3d4b	0.013442348
21	0x3c6bb43f	0.014386236
22	0x3a2e1ba0	0.00066416897
23	0x3bc3e70a	0.0059784697
24	0x3c986314	0.018601932
25	0xbba5e194	-0.0050622914
26	0xbcb3e806	-0.021961223
27	0xbca45a36	-0.020062547
28	0xbc29aeb8	-0.010356598
29	0xbb17f919	-0.0023189245
30	0xbb52fd50	-0.0032194443
31	0x3ad384cc	0.0016137599
32	0x3a7e3783	0.0009697603
33	0xbc0a5e4c	-0.008445334
34	0xbc72565f	-0.0147911
35	0x3c601527	0.013676918
36	0xbd348784	-0.04407455
37	0xbca3a2b5	-0.019975046
38	0xbb6a1496	-0.0035717837
39	0x3c6a9ad1	0.014319138
40	0x3cc84281	0.024445774
41	0xba822514	-0.0009929263
42	0xbd2197e6	-0.039451502
43	0xbc89d1c6	-0.01682366
44	0xbbfb62e6	-0.0076717017
45	0x3bf5694a	0.007489358
46	0xbca0a88a	-0.019611616
47	0xbd0e3431	-0.034717742
48	0xbcd5d5d4	-0.026102938
49	0x3bef37ca	0.0073003517
50	0xbb692b38	-0.003557874
51	0xbb06f505	-0.002059282
52	0x3b1f8cf8	0.0024345499
53	0xbb08570b	-0.0020803835
54	0xbd029898	-0.031883806
55	0x3b805d66	0.003917384
56	0xbc429747	-0.011876888
57	0xba8d7d4a	-0.0010794785
58	0x3c568df9	0.013095372
59	0xbbd2475f	-0.0064171995
60	0xbc8a43bc	-0.016878001
61	0x3c06a6c1	0.008218468
62	0x3cd3e1d8	0.025864527
63	0x39ccb2e0	0.00039043184
64	0xbc5516b2	-0.013005899
65	0xbc8f8b6a	-0.017522532
66	0xb96a0a20	-0.00022319751
67	0x3ce65a22	0.02811915
68	0x3c23db69	0.010001042
69	0xbc06ad28	-0.008219995
70	0x3c482576	0.012215963
71	0x3ca4d360	0.020120323
72	0xbd2220fc	-0.039582238
73	0x3cb05e13	0.021529233
74	0xbd082cd4	-0.033245876
75	0xbcf0740e	-0.029352214
76	0x3db349a5	0.08754281
77	0x3ceab5b9	0.028651105
78	0xbc80beed	-0.01571604
79	0xbb98d000	-0.0046634674
80	0xbc904be8	-0.01761432
81	0xbc62c69c	-0.0138412975
82	0x3c794bd8	0.015215836
83	0x3d49a2ea	0.049227633
84	0xbbbdb97f	-0.005789935
85	0xbc264c7e	-0.010150073
86	0xbc3892f2	-0.011265503
87	0xbaa7540a	-0.0012766134
88	0x3c08e93b	0.008356388
89	0x3c8a8f4d	0.016914034
90	0xbaa1b67e	-0.0012337712
91	0x3c642b31	0.013926313
92	0x3c952eed	0.018210853
93	0x39223d20	0.00015472295
94	0xbcfe3b1a	-0.031034041
95	0xbc279b96	-0.010229966
96	0x3beba12e	0.007190845
97	0xbc4d7a60	-0.0125413835
98	0xbca0ff0f	-0.019652871
99	0xbbe01a44	-0.0068390686
100	0x3bf1351f	0.007361069
101	0x3b2f14ec	0.0026715351
102	0x3b9713a0	0.004610494
103	0x3cc6897f	0.024235485
104	0x3d262500	0.04056263
105	0x3d094697	0.033514585
106	0xbc134554	-0.008988697
107	0xbb5cc7f1	-0.003368851
108	0x3ab9b19f	0.0014167315
109	0x3d198da7	0.037488606
110	0x3c8823ef	0.016618697
111	0xbc506a6b	-0.0127206845
112	0x3c31949f	0.010838657
113	0xbc476d36	-0.012172034
114	0xba14b700	-0.0005673021
115	0x3c9c5077	0.019081337
116	0x3c8d553a	0.017252553
117	0x3b385b47	0.0028130577
118	0x3b7ad740	0.0038275272
119	0x3d2fd5b0	0.042928398
120	0x3cfeb25d	0.03109091
121	0xbcb5173e	-0.02210581
122	0x3bbc9a3f	0.0057556923
123	0x3d6bd1cf	0.057573136
124	0xbd513a5a	-0.05108104
125	0x3a3cd8c7	0.0007203933
126	0x3d0e72a3	0.034777295
127	0xbbd42dfe	-0.0064752093
128	0xbd638676	-0.055548154
129	0x3d18c02d	0.037292648
130	0x3d832d38	0.06405109
131	0x3ceab5e8	0.028651193
132	0x3b905a80	0.0044053197
133	0x3b313b9c	0.0027043587
134	0xbce6a651	-0.028155478
135	0xbc02d47c	-0.007985231
136	0xbc7059ec	-0.014669877
137	0xbbf0c3f5	-0.0073475786
138	0x39e9674b	0.00044518182
139	0x3c1fcf43	0.009754005
140	0x3c553bef	0.013014778
141	0xbc9b78af	-0.018978445
142	0x3aacadeb	0.001317439
143	0x3c9b6784	0.018970259
144	0x3c541db3	0.012946534
145	0xbbf11331	-0.007357024
146	0x3c00f1cb	0.007870148
147	0x3cdb65da	0.026781965
148	0xbdef02ae	-0.11670433
149	0x3c13e0e4	0.009025786
150	0x3b909a6e	0.0044129407
151	0x3cc1aba5	0.023641417
152	0x3b9e99d8	0.004840117
153	0xbbc48377	-0.005997117
154	0xbcd07824	-0.025447913
155	0xbc7bf46b	-0.015378098
156	0xbc474055	-0.012161334
157	0x3c311b7d	0.010809776
158	0x3c42c823	0.011888537
159	0x3b32b31d	0.0027267404
160	0xbb9a1ee2	-0.0047033885
161	0xbba75b0d	-0.0051072896
162	0x3b93e43a	0.0045132907
163	0xbc9cd2c0	-0.019143462
164	0xbc34322c	-0.01099829
165	0x3b73d31d	0.003720469
166	0xbc4c7bdd	-0.012480703
167	0xbd9dbe05	-0.07702259
168	0x3c6df499	0.014523649
169	0x3bd70db6	0.006562914
170	0x3bc715be	0.00607559
171	0xbc5589a5	-0.013033305
172	0x3bcbe864	0.0062227715
173	0xbbe77e76	-0.007064636
174	0xbcde6c38	-0.027151212
175	0x3de8fc07	0.113761954
176	0xbc1390a1	-0.00900665
177	0xbb8c0672	-0.0042732293
178	0xbcbdda33	-0.023175335
179	0xbb948938	-0.0045329593
180	0x3cd265d1	0.025683315
181	0xbb191c9e	-0.0023363004
182	0xbadc36c5	-0.001680099
183	0x3d769ed7	0.060210075
184	0xbce94d4f	-0.028479246
185	0xbba50832	-0.0050363773
186	0x3c0b93c8	0.0085191205
187	0x3a4a5b1c	0.0007719265
188	0xbb8b4f39	-0.0042513874
189	0x3b908cf7	0.0044113356
190	0x3ce78f2b	0.02826651
191	0xbbea88ea	-0.0071574347
192	0x3b180dda	0.0023201616
193	0x3b255d67	0.0025232674
194	0x3c7ada61	0.015310855
195	0x3a380493	0.00070197246
196	0x3a841c08	0.0010079155
197	0x3aa839b8	0.0012834584
198	0xbba884a5	-0.0051427656
199	0x3c8e48b5	0.017368654
200	0x3c1efb0e	0.009703411
201	0xbb6685e0	-0.003517501
202	0x3c3d7d18	0.011565469
203	0x3da20a04	0.079120666
204	0xbc8affc8	-0.01696767
205	0xbc0d9655	-0.008641799
206	0xbbff7686	-0.0077961115
207	0xbb079449	-0.002068775
208	0x3c95c06f	0.018280236
209	0x3b258755	0.0025257666
210	0x3d20fb4b	0.03930215
211	0xbe48811f	-0.19580506
212	0xbce79150	-0.028267533
213	0x3c2d1d67	0.010566092
214	0x3cd61443	0.026132708
215	0x3c191da5	0.009345447
216	0xbc8f3d66	-0.017485332
217	0x3cbcf4fa	0.023066033
218	0xbdaea848	-0.08528191
219	0x3c60477f	0.013688921
220	0xbd4c3fe0	-0.049865603
221	0x3c8cc513	0.017183816
222	0x3b255985	0.002523036
223	0x3a8816e2	0.0010382796
224	0x3bd688f6	0.0065470887
225	0x3c3d760e	0.011563791
226	0x3d0e6f70	0.034774244
227	0x3cc5e836	0.024158578
228	0x3d133573	0.035939645
229	0xbe03446a	-0.12819067
230	0xbcf37798	-0.029720113
231	0x3c27e69b	0.010247852
232	0xb9a5a748	-0.00031595887
233	0x3c644ac8	0.013933845
234	0x3b195628	0.00233973
235	0xbc991a99	-0.01868944
236	0xbb25529e	-0.0025226246
237	0xbd256d56	-0.040387474
238	0x3e4de2d1	0.20106055
239	0x3ceca59a	0.028887559
240	0xbc3655af	-0.011128827
241	0xbcdae862	-0.026722137
242	0xbc1dfc6e	-0.009642703
243	0xbb278099	-0.0025558828
244	0xbabca81c	-0.0014393362
245	0xba5dc8f9	-0.0008460428
246	0xbbe56ec1	-0.0070017283
247	0xbd0b82a8	-0.03406015
248	0x3bc5f617	0.006041299
249	0xbb2bb265	-0.002619886
250	0xbbbc2d52	-0.0057427073
251	0xbc9e8d73	-0.019354558
252	0x3ad698f0	0.0016372483
253	0xbce45b58	-0.027875587
254	0xbb2572cc	-0.0025245426
255	0x3bcb7bfc	0.0062098484

module.dncnn.6.weight f4 [16]
0	0x3e26a43a	0.16273585
1	0x3ec0fd4d	0.37693253
2	0x3e021dc6	0.1270667
3	0x3ee95d99	0.45579222
4	0x3eea3405	0.45742813
5	0x3e34aa15	0.17643006
6	0x3e66e264	0.22547299
7	0x3e8bab51	0.27279142
8	0x3e310929	0.1728865
9	0x3ec4a73d	0.38408843
10	0x3ed31d4a	0.41233283
11	0x3ec41901	0.38300326
12	0x3e487f78	0.19579875
13	0x3e5bc8e1	0.21463348
14	0x3e5c8a49	0.21537127
15	0x3e46b907	0.1940652

module.dncnn.6.bias f4 [16]
0	0x3e6ef766	0.23336563
1	0x3cfb73a8	0.030694798
2	0x3e5794fc	0.21052927
3	0x3936e105	0.00017440699
4	0x39740d9c	0.00023274723
5	0x3c1bc37d	0.009507057
6	0x3e9a2b82	0.3011132
7	0x3df472b7	0.119359426
8	0x3e3fde34	0.18737108
9	0x3abef1be	0.0014567894
10	0x3b2c8821	0.0026326256
11	0xbccb9a22	-0.02485377
12	0x3df854ad	0.121255256
13	0x3e7cd593	0.24690847
14	0x3e2619c2	0.16220763
15	0x3dfb2aea	0.122640446

module.dncnn.6.running_mean f4 [16]
0	0x3cd791b9	0.026314603
1	0x3b2945ae	0.0025828886
2	0xbb3781dd	-0.0028000989
3	0x3c362a86	0.011118537
4	0xbc22a5db	-0.009927238
5	0xbcc4c90b	-0.024021646
6	0xbc3d9d38	-0.011573128
7	0xbc0ed764	-0.008718345
8	0xbca8fdb0	-0.02062878
9	0xbb06beca	-0.0020560496
10	0x3b39bcb2	0.002834123
11	0xbb00107e	-0.001954108
12	0x3c0f3445	0.008740489
13	0xbc9bec33	-0.019033527
14	0xbcf36717	-0.029712243
15	0x3cc13c56	0.02358834

module.dncnn.6.running_var f4 [16]
0	0x3b274caf	0.0025527885
1	0x3c839550	0.016062409
2	0x39bb1ded	0.00035689716
3	0x3cabc27b	0.020966759
4	0x3c7db9cb	0.015486191
5	0x3a0818a6	0.0005191661
6	0x3b31a661	0.0027107226
7	0x3aa03a50	0.001222441
8	0x3a7f1d9a	0.0009731889
9	0x3c7423f9	0.014901155
10	0x3c7652fa	0.015034432
11	0x3c4267e0	0.011865586
12	0x3a814e23	0.0009865206
13	0x3a3f78db	0.00073040806
14	0x3a78ef51	0.000949611
15	0x3a8fdd9f	0.0010976082

module.dncnn.8.weight f4 [16, 16, 3, 3]
0	0x3d2ecfb8	0.042678565
1	0xbbf02e02	-0.0073297033
2	0xbb14a01a	-0.0022678436
3	0xbc9f7954	-0.019467033
4	0xbc66c35d	-0.014084664
5	0xb9b60d55	-0.00034723678
6	0x3d1f2a07	0.03885844
7	0x3ab674dd	0.0013920326
8	0x3b3d3e4f	0.002887625
9	0x3c1176a7	0.008878387
10	0xb99217aa	-0.0002786492
11	0x3b02f0dd	0.0019979991
12	0xbd5dcf3c	-0.054152712
13	0xbcbbe632	-0.022936914
14	0xba4ac155	-0.0007734497
15	0x3cff1743	0.031139022
16	0x3c230d7c	0.009951945
17	0x3aac77b2	0.001315823
18	0x3c82cd2b	0.015966972
19	0xbb8f8cc4	-0.0043807942
20	0x3ae5725d	0.0017505396
21	0x3c96315d	0.018334085
22	0xbd6db07f	-0.058029648
23	0xbbc2d5ed	-0.005945912
24	0x3d587654	0.05284722
25	0xbca70f9f	-0.02039319
26	0x3bbbb6e6	0.0057285903
27	0x3a856037	0.0010175769
28	0xbc4cb236	-0.012493661
29	0xba10d79e	-0.00055252935
30	0x3c1d65ee	0.009606821
31	0xbd03032a	-0.03198544
32	0x3a0159d6	0.0004934346
33	0xbc15ca89	-0.009142526
34	0xbc88a0aa	-0.016678173
35	0xba1d648e	-0.00060040585
36	0xba29adc2	-0.00064727303
37	0x3c3d8da7	0.011569417
38	0x3a07650b	0.0005164898
39	0xbc0d66e9	-0.008630493
40	0x3d052ba0	0.032512307
41	0xb9a729d6	-0.00031883892
42	0x3c05b06b	0.008159737
43	0x3c885647	0.016642703
44	0x393af6db	0.00017830303
45	0xbc173c6d	-0.009230715
46	0x3c0a2408	0.008431442
47	0xbad235a9	-0.001603772
48	0xbce93dd6	-0.028471868
49	0xbbe8eca8	-0.0071082897
50	0x3baf4a7c	0.0053494554
51	0xbc1b66d3	-0.009484964
52	0x3c2464ae	0.0100337695
53	0xba75078c	-0.0009347133
54	0xbd8f1c9f	-0.06987881
55	0x3cb06fa8	0.021537617
56	0xbbdd535a	-0.006754321
57	0x3c04f4c0	0.008114994
58	0x3d20df23	0.0392753
59	0x3b910ea3	0.0044267937
60	0xbc1ae168	-0.009453155
61	0x3b8bad2a	0.004262586
62	0xbb87203a	-0.0041237148
63	0xbb9bcee4	-0.004754888
64	0x3bef2ab5	0.0072987922
65	0xbada7b97	-0.0016668913
66	0xbc3cf630	-0.011533305
67	0x3c0237f6	0.007947912
68	0x3b8710e0	0.0041218847
69	0xbc810565	-0.015749643
70	0xbb98ee0d	-0.0046670497
71	0xbbe3cfd6	-0.006952266
72	0xbbb7c9f8	-0.0056087933
73	0xbbe7c38a	-0.0070728706
74	0xbabf22e2	-0.001458254
75	0x3be848ca	0.0070887553
76	0xbccfea39	-0.02538024
77	0xbbbc0b81	-0.005738676
78	0x3b1a758c	0.0023568599
79	0xbb42c236	-0.002971781
80	0x3bc31ee0	0.0059546083
81	0xbc82206e	-0.015884604
82	0xbc9561c3	-0.018235093
83	0xbaba2181	-0.0014200659
84	0xbd1c2009	-0.03811649
85	0xbd19a029	-0.037506256
86	0x3a5e9d5c	0.00084920763
87	0x3cc6807a	0.024231184
88	0xbca1e478	-0.019762263
89	0xba2eeaae	-0.0006672543
90	0x3c80d665	0.015727231
91	0x3c6bd246	0.014393395
92	0x3aa10cb3	0.001228711
93	0x3d5da5c1	0.054113153
94	0x3d190b16	0.037364088
95	0xbaab4f82	-0.001306996
96	0xbcb48921	-0.022038044
97	0x3c025775	0.007955422
98	0x3a34bba8	0.0006894418
99	0xbc0b41a4	-0.008499537
100	0xbaf73180	-0.0018859357
101	0xbb00a1bc	-0.0019627651
102	0x3d4c270f	0.049841937
103	0x3cb6bad4	0.022305883
104	0x39d89f65	0.0004131749
105	0xbd018c2e	-0.031627826
106	0xbc17dab0	-0.009268448
107	0xbacc7f5b	-0.001560192
108	0x3d203a49	0.039118085
109	0x3d31b1a9	0.04338232
110	0x3c62fc24	0.01385406
111	0x3d50cd82	0.050977238
112	0x3c854adb	0.016271045
113	0xbb6c3dab	-0.00360475
114	0x3c948de6	0.018134069
115	0x3b098e9f	0.002098955
116	0x3b0d4a04	0.002155901
117	0x3c45ba0b	0.012068282
118	0xbc0dce91	-0.008655206
119	0x3c460dc9	0.012088248
120	0xbc9211cb	-0.01783075
121	0xbca1662a	-0.019702036
122	0xbbd0b0a2	-0.0063687125
123	0x3d4d7027	0.050155785
124	0xbc8f34c2	-0.017481212
125	0x3bcb555a	0.006205243
126	0xbc233b66	-0.009962892
127	0x3d03d830	0.032188594
128	0x3b3f5eb7	0.0029200742
129	0x3ce77d02	0.02825785
130	0xbb14c52e	-0.0022700536
131	0xb93df25f	-0.00018114735
132	0x3c010788	0.007875331
133	0xbd0ae860	-0.033913016
134	0xb87be39f	-6.0055052e-05
135	0xbc8c8e53	-0.01715771
136	0x3ae164d4	0.0017196187
137	0xbb88c59d	-0.004173948
138	0x3c109154	0.008823711
139	0x3ccbedb4	0.02489362
140	0x3acaf473	0.0015484228
141	0xbc4eb20c	-0.012615692
142	0xbc2ddab8	-0.010611229
143	0xbb614dd9	-0.0034378676
144	0xbc5f3cbb	-0.013625319
145	0x3b4b2474	0.003099707
146	0x3c0d88fc	0.008638617
147	0xbb983add	-0.004645689
148	0x3c4a39fc	0.012342926
149	0xbc5997fb	-0.013280864
150	0xbb88b95e	-0.004172488
151	0x3b99c824	0.004693048
152	0xb9842ac1	-0.00025208856
153	0xba88ec6f	-0.0010446439
154	0x3ab97e07	0.0014151939
155	0x3a02072a	0.0004960174
156	0xb998198d	-0.00029010736
157	0xb987bf78	-0.00025891862
158	0x3b56db31	0.0032784457
159	0xba2cc3c4	-0.00065904506
160	0x3ad12cb9	0.0015958763
161	0x3a0b3478	0.00053102477
162	0xbb4534b4	-0.0030091228
163	0x3b8de39c	0.0043301117
164	0xbaf6c663	-0.0018827434
165	0xb98c6ddc	-0.00026784732
166	0xbc169557	-0.009190879
167	0xbc089996	-0.008337399
168	0xbb605bb1	-0.003423434
169	0xba7836a8	-0.00094685936
170	0x3b8d9192	0.004320332
171	0x3a0d5eea	0.00053928664
172	0x3b032f94	0.0020017372
173	0xbac0e40c	-0.0014716401
174	0xba8073ad	-0.0009800099
175	0xb9b55c40	-0.00034591742
176	0xbb488d9d	-0.0030601986
177	0xb713abcf	-8.801885e-06
178	0xb854fa1f	-5.0777682e-05
179	0xba4ea395	-0.0007882652
180	0xb9e68bc4	-0.00043973152
181	0xbae58a49	-0.0017512526
182	0x3b02b1a3	0.0019942306
183	0x3a8250f6	0.0009942341
184	0x3a63bee0	0.00086878054
185	0x3b852227	0.004062909
186	0xb8415762	-4.6096167e-05
187	0x3943f7ec	0.00018689007
188	0x3a8024fe	0.000977665
189	0x3ad56f85	0.0016283846
190	0x3b8a11c6	0.0042135445
191	0xb87961e8	-5.945741e-05
192	0x3a9dc7db	0.0012037711
193	0xba70dd3c	-0.000918824
194	0x3baeed7c	0.005338369
195	0xbb02f46d	-0.0019982115
196	0xb7f5de49	-2.9309786e-05
197	0xba1ce663	-0.0005985258
198	0x3b8385ce	0.0040137535
199	0x3aabbff2	0.0013103469
200	0xbb8cd742	-0.0042981217
201	0xbaef2a59	-0.0018246874
202	0x3c40b363	0.011761519
203	0xbc213ae7	-0.009840704
204	0x3bfb496e	0.0076686656
205	0xbc123a94	-0.008925099
206	0xbb2bc5ff	-0.0026210544
207	0x3bcd0b80	0.0062574744
208	0xba61ba97	-0.0008610873
209	0x39ec0d4f	0.00045023343
210	0x3afaf884	0.001914755
211	0xbaa92628	-0.0012905048
212	0xbbd411c2	-0.0064718435
213	0x3b9516cf	0.004549838
214	0xbbaf6c83	-0.005353512
215	0xbb5f0abc	-0.0034033498
216	0xba75d8b0	-0.0009378297
217	0x3a9c3b33	0.0011919498
218	0xbb4897b1	-0.0030607993
219	0xbb384a22	-0.0028120358
220	0xbbe99d90	-0.0071293786
221	0xbac06308	-0.0014677951
222	0x3b6e666f	0.0036376973
223	0xbb86c848	-0.004113231
224	0x3aaeca72	0.001333548
225	0x3a9721a7	0.0011530415
226	0x39fae754	0.0004785607
227	0xbaa4bacb	-0.0012567876
228	0xbaa37853	-0.0012471772
229	0xba8f0472	-0.0010911359
230	0x3e1889f1	0.1489637
231	0xb8f386a0	-0.00011612219
232	0xba921e50	-0.001114795
233	0xbabb96fa	-0.0014311962
234	0xba37df25	-0.0007014147
235	0x3a873494	0.0010315352
236	0x3b3017ba	0.002686961
237	0x3ac63687	0.0015122452
238	0x39da9275	0.0004168932
239	0xbc4bc24f	-0.0124364635
240	0xb81e1247	-3.7687158e-05
241	0x3a8a294f	0.0010540875
242	0x3ada5ad0	0.0016659144
243	0x3a7d0f1a	0.00096534344
244	0xb9aacb83	-0.00032576555
245	0xb8896ca3	-6.552904e-05
246	0x39a55d2e	0.00031540677
247	0x3a819ff5	0.000988959
248	0xbb20464d	-0.0024455965
249	0x39d05663	0.00039737215
250	0xbac557dd	-0.0015056093
251	0xba34dc69	-0.0006899299
252	0xbbb8aa90	-0.005635567
253	0xbbaacc00	-0.005212307
254	0x3bd5e9d3	0.006528118
255	0x3b2ec29d	0.0026666292

module.dncnn.9.weight f4 [16]
0	0x3f0cf783	0.5506517
1	0x3f0a813f	0.54103464
2	0x3f60379e	0.87584865
3	0x3f3fd80e	0.7493905
4	0x3e8ef29c	0.2791947
5	0x3e95b8a4	0.29242432
6	0x3f375de7	0.7162766
7	0x3f40e43b	0.7534825
8	0x3ef16b3f	0.47152135
9	0x3f2e1a7c	0.6800916
10	0x3f4462d4	0.767133
11	0x3f37d63d	0.71811277
12	0x3f2d40ee	0.676772
13	0x3f088e0d	0.5334175
14	0x3f45b7ed	0.77233773
15	0x3f49f0c3	0.78883

module.dncnn.9.bias f4 [16]
0	0x3cf0e9ad	0.0294083
1	0x3e90881d	0.28228846
2	0x3e0dc9aa	0.1384646
3	0xbd0a215b	-0.033723217
4	0x3e53bc5c	0.20677322
5	0x3e371726	0.17879924
6	0x3ce00210	0.027344733
7	0x3d457a35	0.04821225
8	0x3e7eded7	0.24889694
9	0x3aa653aa	0.0012689729
10	0xbb49afaa	-0.003077487
11	0xbc2abccb	-0.010420988
12	0x3ad362e6	0.0016127496
13	0xbcbdf3e5	-0.023187587
14	0x3bbfe717	0.0058564055
15	0x3e5fd1cf	0.2185738

module.dncnn.9.running_mean f4 [16]
0	0x3cb825b5	0.022478918
1	0x3c4db30b	0.012554894
2	0xbcfcc06a	-0.030853469
3	0x3a92d762	0.0011203105
4	0xbd70e8fd	-0.058815945
5	0x3cd674cc	0.02617874
6	0xbb14f097	-0.002272641
7	0x3ac6f745	0.0015179893
8	0x3cc07959	0.023495363
9	0x3c23210a	0.009956608
10	0xbd0b2ef7	-0.033980336
11	0x3b12be26	0.002239117
12	0xbc1d840b	-0.009614001
13	0xbca7ec74	-0.020498492
14	0x3d14c28d	0.03631835
15	0x3d77eaec	0.060526773

module.dncnn.9.running_var f4 [16]
0	0x3b072144	0.0020619193
1	0x3aaf1b2b	0.0013359537
2	0x3b81f168	0.0039655454
3	0x3b71ce2e	0.0036896574
4	0x38f316bd	0.00011591378
5	0x398ecfb9	0.00027239116
6	0x3b39e886	0.0028367355
7	0x3b6a99f8	0.003579734
8	0x3abad292	0.0014253429
9	0x3b57524e	0.0032855454
10	0x3b2d2bdd	0.002642385
11	0x3b37ad1c	0.0028026765
12	0x3b61429c	0.0034371978
13	0x3ac67327	0.0015140519
14	0x3b3fac6c	0.0029247059
15	0x3b4e9bc6	0.0031525954

module.dncnn.11.weight f4 [3, 16, 3, 3]
0	0x3b37629a	0.0027982355
1	0x3dd90f55	0.105986275
2	0x3d0b4803	0.034004223
3	0x3a74a655	0.0009332647
4	0x3dd9a21d	0.10626624
5	0x3dd50b42	0.10402538
6	0x3b26855a	0.0025409074
7	0x3d8a3976	0.06749241
8	0x3cd87235	0.026421646
9	0xbbe57831	-0.0070028533
10	0xbc85d1d4	-0.016335405
11	0x3c2646c8	0.0101487115
12	0xbeb354d1	-0.35025647
13	0xbd26ea90	-0.04075104
14	0x3c86b93a	0.016445745
15	0x3d97a80d	0.074051
16	0x3c2c07f8	0.010499947
17	0x3cd9b038	0.026573285
18	0xbd56d964	-0.052453414
19	0xbc2be962	-0.0104926545
20	0xbd9a2808	-0.075271666
21	0xbd17a6cc	-0.037024304
22	0xbea1d921	-0.3161097
23	0xbc620226	-0.013794458
24	0xba806dd6	-0.0009798359
25	0xbe0152b0	-0.12629199
26	0xbdd95699	-0.1061222
27	0xbe15e39a	-0.14637604
28	0x3e728bf3	0.23686199
29	0xbcf278d2	-0.029598627
30	0xbde53e6f	-0.11193549
31	0xbe65c1e5	-0.22437246
32	0xbe76c525	-0.24098642
33	0xba393780	-0.000706546
34	0xb78e8793	-1.699085e-05
35	0xbaad3c23	-0.0013216775
36	0xbd93e758	-0.0722186
37	0xbd8c044f	-0.06836759
38	0xbd90fdd5	-0.070796646
39	0xbd1f40e9	-0.038880263
40	0xbce03ef3	-0.027373767
41	0xbcc4b29b	-0.024010947
42	0xbd5022dd	-0.0508145
43	0xbaf86e87	-0.0018953838
44	0x3cfbc7ac	0.03073486
45	0x3b8cbd22	0.0042950073
46	0x3c6e9c86	0.014563685
47	0x3c82414f	0.015900282
48	0x3cca1512	0.02466825
49	0x3d770da9	0.06031576
50	0xbbb4abf0	-0.0055136606
51	0x3c547049	0.012966224
52	0xbbed5aee	-0.0072435057
53	0xbd56a1dd	-0.05240046
54	0xbb0d783e	-0.0021586563
55	0xba23eb22	-0.0006252994
56	0x3aac0b88	0.0013125995
57	0xbde2d65d	-0.11076043
58	0x3e97fbb1	0.29684213
59	0x3e04e562	0.12978128
60	0xbdb2bdc9	-0.08727605
61	0x3ddd85bd	0.10816524
62	0xbb39ad8a	-0.0028332197
63	0x3ad0add2	0.0015920943
64	0x3a8e32f1	0.0010848922
65	0x3b323455	0.0027191837
66	0x3e14fe12	0.14550045
67	0xbe6fd5e3	-0.23421435
68	0x3cf60235	0.03003035
69	0x3de53977	0.11192601
70	0x3e63f864	0.22262722
71	0x3e74ecda	0.23918477
72	0x3d215865	0.03939094
73	0x3e8fd8fc	0.28095233
74	0x3d59308d	0.053024817
75	0x3d47c703	0.048773777
76	0xbd981389	-0.07425601
77	0x3d5b5af0	0.05355352
78	0x3c48708b	0.012233864
79	0x3c860e2f	0.016364185
80	0x3c01bd80	0.0079187155
81	0xbc926acf	-0.017873196
82	0x3d4e190f	0.050316866
83	0xbd4ca1a8	-0.049958855
84	0x3dcd5035	0.10025064
85	0xbea16403	-0.31521615
86	0x3cddcfc7	0.027076615
87	0x3c8c723c	0.017144315
88	0xbd31a77b	-0.043372612
89	0xbcc1fce9	-0.023680167
90	0xbd5c5be3	-0.053798568
91	0xbdb6468b	-0.08900174
92	0xbe019649	-0.12654985
93	0x3d10a310	0.03531176
94	0xbe962e53	-0.29332218
95	0x3d3dc26d	0.046327997
96	0x3da6c1a8	0.08142406
97	0x3de51084	0.11184791
98	0x3d9fa446	0.077950045
99	0x3de56024	0.11199978
100	0xbe97f6d3	-0.296805
101	0xbe04b8e3	-0.12961154
102	0x3db5ba4d	0.08873425
103	0xbddd76db	-0.108136855
104	0x3b89b72b	0.0042027435
105	0x38a09453	7.657022e-05
106	0x3a3be866	0.0007168114
107	0xba92d5d3	-0.0011202641
108	0x3c9b5f86	0.018966448
109	0xbd4c4899	-0.049873922
110	0x3d4d96e9	0.050192747
111	0xbdce5d54	-0.10076395
112	0x3ea1dfca	0.3161605
113	0xbcdfb164	-0.027306266
114	0xbc8e0616	-0.017336886
115	0x3d33b7a8	0.04387632
116	0x3cbc5fa5	0.022994826
117	0xbde1566c	-0.11002812
118	0xbd1039e6	-0.035211466
119	0x39b8aa4e	0.00035222102
120	0xbde4b768	-0.111677945
121	0xbdddef91	-0.10836709
122	0xba02531d	-0.0004971491
123	0xbd90a841	-0.07063342
124	0xbcdc48fc	-0.02689027
125	0x3a0a91bc	0.00052859983
126	0x3d5acd10	0.05341822
127	0x3db51934	0.08842698
128	0x3e00c986	0.12576875
129	0xbd0f1c4e	-0.034939103
130	0x3e9564d7	0.29178497
131	0xbd3b2388	-0.045688182
132	0xbda3d618	-0.079998195
133	0xbde33947	-0.11094909
134	0xbd9f3b1c	-0.07774946
135	0x3d557991	0.052117888
136	0x3c3066fe	0.010766743
137	0x3d8ad880	0.06779575
138	0x3d027dbf	0.031858202
139	0x3e9847c4	0.29742253
140	0x3c757641	0.014981807
141	0xbae65597	-0.0017573115
142	0x3debcb61	0.11513401
143	0x3dd17e4c	0.10229167
144	0x3b00b194	0.0019637095
145	0x3d8524ac	0.06501135
146	0x3e05412c	0.13013142
147	0x3a844fa3	0.0010094534
148	0x3b0f19d9	0.0021835475
149	0xbe270263	-0.16309504
150	0x3a115c4c	0.00055450643
151	0xbd2c176e	-0.04201453
152	0xbdc73931	-0.09727705
153	0x3c6d746b	0.014493088
154	0x3c8fe027	0.017562939
155	0x3ca26202	0.019822124
156	0x3e90183f	0.28143498
157	0xbd17ea5d	-0.03708874
158	0x38a0b4ba	7.6630575e-05
159	0x3d778688	0.060431033
160	0xbc3e66e9	-0.011621215
161	0xbb48cca3	-0.003063955
162	0x3c6693ee	0.014073355
163	0x3d7cf1fe	0.06175422
164	0x3a430629	0.00074395776
165	0xbc691d67	-0.0142282015
166	0xbe809472	-0.25113255
167	0x3d4cfac5	0.05004384
168	0x3da36b95	0.07979504
169	0xbdc84ae0	-0.09779906
170	0x3d40b51b	0.047047716
171	0xbc523b15	-0.012831469
172	0xbd900c82	-0.07033636
173	0xbe3891c1	-0.1802435
174	0xbd365f54	-0.044524506
175	0xbe72987f	-0.23690985
176	0x3e181610	0.14852166
177	0x3a139b82	0.00056307775
178	0x38c5116a	9.396936e-05
179	0xba813581	-0.0009857864
180	0xbd3a4098	-0.045471758
181	0xbd6f91ea	-0.058488764
182	0xbd5e3909	-0.05425361
183	0xbd07a12b	-0.033112686
184	0xbd2ffcab	-0.042965572
185	0xbcbac8f2	-0.022800896
186	0xbd206095	-0.039154608
187	0xbc3ae096	-0.0114060845
188	0x3ccfe87f	0.025379417
189	0xbd509000	-0.05091858
190	0xbd0ad178	-0.03389117
191	0xbd078abc	-0.03309129
192	0xbd282350	-0.0410493
193	0x3c31f4cc	0.010861587
194	0xbd24c028	-0.040222317
195	0xbd030ce7	-0.031994727
196	0xbc0843b0	-0.008316919
197	0xbd4bc264	-0.049745932
198	0xba090d1a	-0.00052280875
199	0xb90c4364	-0.00013376545
200	0x3a95dc07	0.0011433371
201	0x3c985003	0.01859284
202	0xbddb115d	-0.10696671
203	0x3c671de2	0.014106246
204	0xbc997e39	-0.018736945
205	0x3ebeae45	0.37242332
206	0xbe373977	-0.17893015
207	0x3a8569cb	0.0010178623
208	0x39869dea	0.00025676127
209	0x3a0d6651	0.00053939695
210	0x3c53f449	0.01293666
211	0x3d8fbbd1	0.07018245
212	0x3e3759dd	0.17905374
213	0x3d357e8e	0.044310145
214	0x3e70d25f	0.2351775
215	0xbe15d961	-0.14633705
216	0x3d0b5cf4	0.034024194
217	0xbe60b2be	-0.21943185
218	0x3d169080	0.0367589
219	0x3d07175d	0.032981265
220	0xbd8297fb	-0.06376644
221	0x3cb6dcc1	0.02232206
222	0x3c798b1c	0.01523092
223	0x3c8ed12a	0.017433722
224	0xbb16e7f0	-0.002302643
225	0x3d8ae43a	0.06781812
226	0x3bc5616a	0.0060235756
227	0x3d837288	0.064183295
228	0x3d91f57e	0.07126902
229	0x3e460cc6	0.1934081
230	0x3d97ad04	0.07406047
231	0x3dba9bb7	0.091117315
232	0x3e012216	0.12610659
233	0x3dd68c9a	0.10476036
234	0xbc134c48	-0.008990355
235	0x3dbec190	0.09314263
236	0xbcc118f9	-0.023571478
237	0x3c672742	0.014108481
238	0xbe4c5d8b	-0.19957559
239	0xbebc9576	-0.3683278
240	0x3d096d8d	0.03355174
241	0x3e2081ef	0.15674566
242	0xbd6df911	-0.058098856
243	0xbc97a750	-0.018512398
244	0x3ddc13f1	0.10745991
245	0xbc5f1fe5	-0.013618444
246	0x3c9eccd2	0.019384775
247	0xbebf99dd	-0.37422076
248	0x3e39adb7	0.18132673
249	0xb88954e2	-6.54848e-05
250	0xba51dc30	-0.0008005528
251	0xb88056d5	-6.119689e-05
252	0xbd8b2167	-0.0679348
253	0xbbbf05de	-0.005829557
254	0xbd83de3b	-0.064388715
255	0xbd939f6a	-0.0720814

exp_avg f4 [16, 3, 3, 3]
0	0xb815bb12	-3.569859e-05
1	0xb829315c	-4.033871e-05
2	0xb826ce58	-3.9769657e-05
3	0x3634f9c0	2.6967464e-06
4	0xb78c76b5	-1.6744578e-05
5	0xb84a44c0	-4.822458e-05
6	0x36cc9a92	6.097668e-06
7	0x37116ca8	8.667972e-06
8	0xb7af9193	-2.0929414e-05
9	0x3824495c	3.916897e-05
10	0x387c9fd4	6.0230333e-05
11	0x383dab1d	4.5220473e-05
12	0x37e4eb5c	2.7289316e-05
13	0x38581a2a	5.152278e-05
14	0x384cdffa	4.8845985e-05
15	0x380fdafd	3.4297806e-05
16	0x387455dc	5.8254096e-05
17	0x389d0c74	7.488663e-05
18	0xb906536a	-0.0001281031
19	0xb90c8e2c	-0.00013404404
20	0xb91623ba	-0.00014318424
21	0xb9124760	-0.00013950234
22	0xb906fd74	-0.00012873654
23	0xb929b26b	-0.00016183562
24	0xb90d9bfc	-0.00013504917
25	0xb8fb966b	-0.0001199663
26	0xb8f73dc2	-0.00011789381
27	0xb9d75b3d	-0.00041075973
28	0xb98b5916	-0.0002657852
29	0xb9d62c5b	-0.00040850308
30	0xb9b25f8e	-0.00034022
31	0xb9e08ba3	-0.00042828647
32	0xb9fbb18b	-0.0004800673
33	0xb994e751	-0.00028401104
34	0xb99c7d3d	-0.00029847948
35	0xb9ce4f31	-0.00039350384
36	0xb92f8218	-0.00016737764
37	0xb92c5edd	-0.00016438538
38	0xb897f01d	-7.244966e-05
39	0xb982bb91	-0.0002493528
40	0xb945d097	-0.0001886509
41	0xb95b585e	-0.00020918387
42	0xb92c8476	-0.00016452544
43	0xb7f7017c	-2.9445386e-05
44	0xb92e2519	-0.00016607753
45	0x39c95a64	0.00038405054
46	0x396685e8	0.00021984393
47	0x391def17	0.00015061755
48	0x391b2a77	0.00014797771
49	0xb9360a95	-0.00017360815
50	0x362cb0c5	2.573289e-06
51	0x396c2bb9	0.00022523002
52	0xb8cf8c7b	-9.896696e-05
53	0xb89b48dc	-7.404547e-05
54	0x38ee3769	0.00011359045
55	0x39257dbc	0.00015782466
56	0x3903f80c	0.00012585538
57	0x38f2bd59	0.00011574728
58	0x393bc013	0.00017905263
59	0x392636cf	0.00015851411
60	0x37759195	1.4637034e-05
61	0x39004ae7	0.00012234935
62	0x38e472b6	0.00010893254
63	0x38e32450	0.00010830967
64	0x37d20374	2.5035559e-05
65	0x38efa997	0.00011427997
66	0x379c911a	1.8664217e-05
67	0x379f2596	1.897178e-05
68	0x38e89377	0.000110900895
69	0x37a947c0	2.0179781e-05
70	0x3760bc8f	1.3395343e-05
71	0x38ad8484	8.273966e-05
72	0xb903e516	-0.00012578475
73	0x388761c3	6.455511e-05
74	0xb7343b77	-1.0742681e-05
75	0x38301f07	4.1990566e-05
76	0x38a05481	7.6451346e-05
77	0x38434585	4.6556368e-05
78	0xb8f24e7d	-0.00011554079
79	0x380ddbb8	3.382165e-05
80	0x37ea5803	2.7935957e-05
81	0x39188f32	0.00014549194
82	0x381d4782	3.7498314e-05
83	0x392c774c	0.0001644764
84	0x38dcb592	0.000105242376
85	0xb86606e9	-5.484271e-05
86	0x38dc66dd	0.00010509577
87	0x39352a62	0.00017277294
88	0x391bdb5c	0.0001486367
89	0x3967b4e5	0.00022097265
90	0x38510697	4.983562e-05
91	0x38c4ce58	9.384443e-05
92	0x38df07d5	0.000106349275
93	0x371bb0ed	9.279914e-06
94	0x3845728c	4.707514e-05
95	0x38b0288e	8.399888e-05
96	0x38ed4c2b	0.00011315228
97	0x37bac1a4	2.2263099e-05
98	0x3858ba29	5.167179e-05
99	0x392a2dda	0.00016229544
100	0x392717d7	0.00015935242
101	0x3940d4d9	0.00018389839
102	0x3987d3cb	0.00025907005
103	0x37f0a2c1	2.8686018e-05
104	0x391c8a47	0.00014928832
105	0x396f22a6	0.00022805724
106	0x383a5e60	4.443375e-05
107	0x39281341	0.00016028901
108	0xb9d3229f	-0.0004027085
109	0xb99aa611	-0.00029496898
110	0xb99af431	-0.00029555106
111	0xb930ab18	-0.00016848405
112	0x37d0ed8f	2.4906154e-05
113	0xb899256e	-7.30258e-05
114	0xb9993c21	-0.00029227234
115	0xb9f89a11	-0.00047417035
116	0xba1f7cac	-0.0006083946
117	0x3969cb1a	0.00022296273
118	0xb884dabe	-6.3349944e-05
119	0xb983e593	-0.00025157313
120	0x39564359	0.0002043372
121	0x389fe3fc	7.624176e-05
122	0xb96d0ef2	-0.00022607649
123	0xb7d5e0c0	-2.5496236e-05
124	0xb8acf778	-8.247694e-05
125	0xb991826e	-0.00027753733
126	0xb913c155	-0.00014091034
127	0xb9d6fd3e	-0.0004100594
128	0xb9e83614	-0.0004429078
129	0xb89a8189	-7.36742e-05
130	0xb82c825b	-4.11294e-05
131	0xb94aed03	-0.00019352515
132	0x368302e1	3.9044394e-06
133	0xb8e16919	-0.00010748412
134	0xb976a535	-0.00023521933
135	0x37b82587	2.1951984e-05
136	0xb694c3e0	-4.4335466e-06
137	0x37e8e4ce	2.77631e-05
138	0x38de4aae	0.00010599695
139	0x380b2a59	3.3179622e-05
140	0x37bd107c	2.2538232e-05
141	0x391982b6	0.0001463991
142	0x3819e4fa	3.6691294e-05
143	0x38eeeb06	0.00011392501
144	0x37f5ae4f	2.9287445e-05
145	0x38e36e25	0.000108447195
146	0x394f6a52	0.00019780666
147	0x383ae540	4.455936e-05
148	0x37c61346	2.3612414e-05
149	0x39325d1b	0.00017010087
150	0x39036927	0.00012532306
151	0x38a3e3f0	7.814902e-05
152	0x39291ea8	0.00016128516
153	0x38b41be8	8.588267e-05
154	0xb72410f8	-9.779113e-06
155	0x382f68e9	4.1820957e-05
156	0x38ac86a9	8.2266815e-05
157	0xb8221d2b	-3.8650975e-05
158	0xb85c1415	-5.247079e-05
159	0x3882dcc6	6.240005e-05
160	0x3887e19c	6.479325e-05
161	0x383f8e2d	4.567036e-05
162	0xb814d1a2	-3.5481185e-05
163	0xb8667551	-5.4945533e-05
164	0x3936d62f	0.00017436662
165	0xb84b9175	-4.853444e-05
166	0xb888b6ff	-6.519071e-05
167	0x38be8daa	9.086293e-05
168	0x3982df27	0.00024961794
169	0x37a501ed	1.967043e-05
170	0x39bd6d00	0.000361301
171	0x397e8663	0.0002427339
172	0x39adf076	0.0003317629
173	0x3978df81	0.00023734385
174	0x392d2247	0.00016511335
175	0x39804db1	0.00024471947
176	0x39702f19	0.00022905729
177	0x3953dee3	0.0002020556
178	0x3946b7b3	0.00018951185
179	0x397ddeb3	0.00024210922
180	0x388ced1f	6.7198875e-05
181	0xb7642362	-1.3598097e-05
182	0x3902395c	0.00012419134
183	0x38d29dd2	0.00010042977
184	0xb8bbe4c0	-8.959463e-05
185	0x367b9279	3.7487173e-06
186	0x3991f52d	0.00027839225
187	0xb89866d3	-7.267077e-05
188	0x39520b96	0.00020031477
189	0x389e85fe	7.558985e-05
190	0x38ce415a	9.835018e-05
191	0x3746e6a3	1.1855419e-05
192	0x39143c9d	0.0001413696
193	0xb9de5767	-0.0004240826
194	0xb8abd8d8	-8.194306e-05
195	0x38a3b55a	7.806225e-05
196	0x39d80004	0.00041198742
197	0x391c7f28	0.00014924689
198	0x38a79490	7.9908525e-05
199	0xb822eb44	-3.8842918e-05
200	0x39162634	0.00014319347
201	0x38bf5359	9.1231144e-05
202	0x38de3cec	0.000105971325
203	0x389266c8	6.980967e-05
204	0x39238ec9	0.00015598083
205	0x3930f0f8	0.00016874436
206	0x38a2852a	7.749566e-05
207	0x39a43b90	0.00031324895
208	0x39a4edbb	0.0003145764
209	0x399e2bd5	0.00030168766
210	0x39e411b9	0.00043500753
211	0x3728e494	1.00668e-05
212	0x38b11851	8.444547e-05
213	0x392fe616	0.00016775014
214	0x39874f3c	0.0002580824
215	0x3940bb62	0.00018380352
216	0xb9132d85	-0.0001403597
217	0xb86f6498	-5.7075726e-05
218	0xb93773ee	-0.00017495427
219	0xb8b379bc	-8.55806e-05
220	0xb855a92e	-5.094072e-05
221	0xb992de09	-0.0002801272
222	0x391cd88f	0.00014957994
223	0x38c2672c	9.269858e-05
224	0xb895f8d9	-7.151225e-05
225	0x3949b177	0.00019234965
226	0x379a43cd	1.8389803e-05
227	0x389b4b0b	7.404954e-05
228	0x38e81c11	0.0001106785
229	0x38d760fc	0.00010270064
230	0x3994f642	0.00028412236
231	0x394cc5ae	0.00019528597
232	0x390c174f	0.00013360124
233	0x396fc2db	0.00022865405
234	0x3961cb5e	0.00021533432
235	0x3832d40b	4.2635987e-05
236	0xb8b5170f	-8.6350476e-05
237	0x3682f36a	3.902639e-06
238	0xb9473aab	-0.00018999974
239	0x365385eb	3.15194e-06
240	0x39685235	0.00022155869
241	0xb85ac02d	-5.2154228e-05
242	0xb737f9ce	-1.0965812e-05
243	0xb942f1f2	-0.00018591413
244	0xb915da0c	-0.00014290976
245	0xb8c016cd	-9.1595204e-05
246	0x37fc585d	3.0081888e-05
247	0x362dbb7e	2.5888144e-06
248	0xb8bf6dbc	-9.128029e-05
249	0xb92ed0f8	-0.0001667178
250	0xb9a4298a	-0.00031311467
251	0xb90418ff	-0.00012597813
252	0xb8e57f96	-0.00010943336
253	0xb932b1d2	-0.00017041646
254	0xb863680d	-5.4217922e-05
255	0xb8f466b0	-0.00011653954
